<?xml version="1.0" ?>
<net name="model" version="10">
	<layers>
		<layer id="0" name="0" type="Parameter" version="opset1">
			<data shape="1, 300, 300, 3" element_type="f32"/>
			<output>
				<port id="0" precision="FP32" names="0">
					<dim>1</dim>
					<dim>300</dim>
					<dim>300</dim>
					<dim>3</dim>
				</port>
			</output>
		</layer>
		<layer id="1" name="Constant_0" type="Const" version="opset1">
			<data element_type="i32" shape="" offset="0" size="4"/>
			<output>
				<port id="0" precision="I32" names="2"/>
			</output>
		</layer>
		<layer id="2" name="Gather_1/axis" type="Const" version="opset1">
			<data element_type="i64" shape="" offset="4" size="8"/>
			<output>
				<port id="0" precision="I64"/>
			</output>
		</layer>
		<layer id="3" name="Gather_179" type="Gather" version="opset7">
			<data batch_dims="0"/>
			<input>
				<port id="0" precision="FP32">
					<dim>1</dim>
					<dim>300</dim>
					<dim>300</dim>
					<dim>3</dim>
				</port>
				<port id="1" precision="I32"/>
				<port id="2" precision="I64"/>
			</input>
			<output>
				<port id="3" precision="FP32" names="3">
					<dim>300</dim>
					<dim>300</dim>
					<dim>3</dim>
				</port>
			</output>
		</layer>
		<layer id="4" name="Constant_2" type="Const" version="opset1">
			<data element_type="i32" shape="" offset="0" size="4"/>
			<output>
				<port id="0" precision="I32" names="4"/>
			</output>
		</layer>
		<layer id="5" name="Gather_3/axis" type="Const" version="opset1">
			<data element_type="i64" shape="" offset="12" size="8"/>
			<output>
				<port id="0" precision="I64"/>
			</output>
		</layer>
		<layer id="6" name="Gather_371" type="Gather" version="opset7">
			<data batch_dims="0"/>
			<input>
				<port id="0" precision="FP32">
					<dim>300</dim>
					<dim>300</dim>
					<dim>3</dim>
				</port>
				<port id="1" precision="I32"/>
				<port id="2" precision="I64"/>
			</input>
			<output>
				<port id="3" precision="FP32" names="14,5">
					<dim>300</dim>
					<dim>300</dim>
				</port>
			</output>
		</layer>
		<layer id="7" name="Unsqueeze_13/Dims" type="Const" version="opset1">
			<data element_type="i64" shape="1" offset="4" size="8"/>
			<output>
				<port id="0" precision="I64">
					<dim>1</dim>
				</port>
			</output>
		</layer>
		<layer id="8" name="Unsqueeze_13/Unsqueeze" type="Unsqueeze" version="opset1">
			<input>
				<port id="0" precision="FP32">
					<dim>300</dim>
					<dim>300</dim>
				</port>
				<port id="1" precision="I64">
					<dim>1</dim>
				</port>
			</input>
			<output>
				<port id="2" precision="FP32" names="15">
					<dim>1</dim>
					<dim>300</dim>
					<dim>300</dim>
				</port>
			</output>
		</layer>
		<layer id="9" name="Unsqueeze_14/Dims" type="Const" version="opset1">
			<data element_type="i64" shape="1" offset="4" size="8"/>
			<output>
				<port id="0" precision="I64">
					<dim>1</dim>
				</port>
			</output>
		</layer>
		<layer id="10" name="Unsqueeze_14/Unsqueeze" type="Unsqueeze" version="opset1">
			<input>
				<port id="0" precision="FP32">
					<dim>1</dim>
					<dim>300</dim>
					<dim>300</dim>
				</port>
				<port id="1" precision="I64">
					<dim>1</dim>
				</port>
			</input>
			<output>
				<port id="2" precision="FP32" names="16">
					<dim>1</dim>
					<dim>1</dim>
					<dim>300</dim>
					<dim>300</dim>
				</port>
			</output>
		</layer>
		<layer id="11" name="blur.weight" type="Const" version="opset1">
			<data element_type="f32" shape="1, 1, 5, 5" offset="20" size="100"/>
			<output>
				<port id="0" precision="FP32" names="blur.weight">
					<dim>1</dim>
					<dim>1</dim>
					<dim>5</dim>
					<dim>5</dim>
				</port>
			</output>
		</layer>
		<layer id="12" name="Conv_21" type="Convolution" version="opset1">
			<data strides="1, 1" dilations="1, 1" pads_begin="2, 2" pads_end="2, 2" auto_pad="explicit"/>
			<input>
				<port id="0" precision="FP32">
					<dim>1</dim>
					<dim>1</dim>
					<dim>300</dim>
					<dim>300</dim>
				</port>
				<port id="1" precision="FP32">
					<dim>1</dim>
					<dim>1</dim>
					<dim>5</dim>
					<dim>5</dim>
				</port>
			</input>
			<output>
				<port id="2" precision="FP32" names="23">
					<dim>1</dim>
					<dim>1</dim>
					<dim>300</dim>
					<dim>300</dim>
				</port>
			</output>
		</layer>
		<layer id="13" name="Constant_22" type="Const" version="opset1">
			<data element_type="i32" shape="" offset="0" size="4"/>
			<output>
				<port id="0" precision="I32" names="24"/>
			</output>
		</layer>
		<layer id="14" name="Gather_23/axis" type="Const" version="opset1">
			<data element_type="i64" shape="" offset="4" size="8"/>
			<output>
				<port id="0" precision="I64"/>
			</output>
		</layer>
		<layer id="15" name="Gather_2369" type="Gather" version="opset7">
			<data batch_dims="0"/>
			<input>
				<port id="0" precision="FP32">
					<dim>1</dim>
					<dim>1</dim>
					<dim>300</dim>
					<dim>300</dim>
				</port>
				<port id="1" precision="I32"/>
				<port id="2" precision="I64"/>
			</input>
			<output>
				<port id="3" precision="FP32" names="25">
					<dim>1</dim>
					<dim>300</dim>
					<dim>300</dim>
				</port>
			</output>
		</layer>
		<layer id="16" name="Constant_24" type="Const" version="opset1">
			<data element_type="i32" shape="" offset="0" size="4"/>
			<output>
				<port id="0" precision="I32" names="26"/>
			</output>
		</layer>
		<layer id="17" name="Gather_25/axis" type="Const" version="opset1">
			<data element_type="i64" shape="" offset="4" size="8"/>
			<output>
				<port id="0" precision="I64"/>
			</output>
		</layer>
		<layer id="18" name="Gather_2567" type="Gather" version="opset7">
			<data batch_dims="0"/>
			<input>
				<port id="0" precision="FP32">
					<dim>1</dim>
					<dim>300</dim>
					<dim>300</dim>
				</port>
				<port id="1" precision="I32"/>
				<port id="2" precision="I64"/>
			</input>
			<output>
				<port id="3" precision="FP32" names="27">
					<dim>300</dim>
					<dim>300</dim>
				</port>
			</output>
		</layer>
		<layer id="19" name="Unsqueeze_36/Dims" type="Const" version="opset1">
			<data element_type="i64" shape="1" offset="12" size="8"/>
			<output>
				<port id="0" precision="I64">
					<dim>1</dim>
				</port>
			</output>
		</layer>
		<layer id="20" name="Unsqueeze_36/Unsqueeze" type="Unsqueeze" version="opset1">
			<input>
				<port id="0" precision="FP32">
					<dim>300</dim>
					<dim>300</dim>
				</port>
				<port id="1" precision="I64">
					<dim>1</dim>
				</port>
			</input>
			<output>
				<port id="2" precision="FP32" names="38">
					<dim>300</dim>
					<dim>300</dim>
					<dim>1</dim>
				</port>
			</output>
		</layer>
		<layer id="21" name="Constant_4" type="Const" version="opset1">
			<data element_type="i32" shape="" offset="0" size="4"/>
			<output>
				<port id="0" precision="I32" names="6"/>
			</output>
		</layer>
		<layer id="22" name="Gather_5/axis" type="Const" version="opset1">
			<data element_type="i64" shape="" offset="4" size="8"/>
			<output>
				<port id="0" precision="I64"/>
			</output>
		</layer>
		<layer id="23" name="Gather_587" type="Gather" version="opset7">
			<data batch_dims="0"/>
			<input>
				<port id="0" precision="FP32">
					<dim>1</dim>
					<dim>300</dim>
					<dim>300</dim>
					<dim>3</dim>
				</port>
				<port id="1" precision="I32"/>
				<port id="2" precision="I64"/>
			</input>
			<output>
				<port id="3" precision="FP32" names="7">
					<dim>300</dim>
					<dim>300</dim>
					<dim>3</dim>
				</port>
			</output>
		</layer>
		<layer id="24" name="Constant_6" type="Const" version="opset1">
			<data element_type="i32" shape="" offset="120" size="4"/>
			<output>
				<port id="0" precision="I32" names="8"/>
			</output>
		</layer>
		<layer id="25" name="Gather_7/axis" type="Const" version="opset1">
			<data element_type="i64" shape="" offset="12" size="8"/>
			<output>
				<port id="0" precision="I64"/>
			</output>
		</layer>
		<layer id="26" name="Gather_773" type="Gather" version="opset7">
			<data batch_dims="0"/>
			<input>
				<port id="0" precision="FP32">
					<dim>300</dim>
					<dim>300</dim>
					<dim>3</dim>
				</port>
				<port id="1" precision="I32"/>
				<port id="2" precision="I64"/>
			</input>
			<output>
				<port id="3" precision="FP32" names="17,9">
					<dim>300</dim>
					<dim>300</dim>
				</port>
			</output>
		</layer>
		<layer id="27" name="Unsqueeze_16/Dims" type="Const" version="opset1">
			<data element_type="i64" shape="1" offset="4" size="8"/>
			<output>
				<port id="0" precision="I64">
					<dim>1</dim>
				</port>
			</output>
		</layer>
		<layer id="28" name="Unsqueeze_16/Unsqueeze" type="Unsqueeze" version="opset1">
			<input>
				<port id="0" precision="FP32">
					<dim>300</dim>
					<dim>300</dim>
				</port>
				<port id="1" precision="I64">
					<dim>1</dim>
				</port>
			</input>
			<output>
				<port id="2" precision="FP32" names="18">
					<dim>1</dim>
					<dim>300</dim>
					<dim>300</dim>
				</port>
			</output>
		</layer>
		<layer id="29" name="Unsqueeze_17/Dims" type="Const" version="opset1">
			<data element_type="i64" shape="1" offset="4" size="8"/>
			<output>
				<port id="0" precision="I64">
					<dim>1</dim>
				</port>
			</output>
		</layer>
		<layer id="30" name="Unsqueeze_17/Unsqueeze" type="Unsqueeze" version="opset1">
			<input>
				<port id="0" precision="FP32">
					<dim>1</dim>
					<dim>300</dim>
					<dim>300</dim>
				</port>
				<port id="1" precision="I64">
					<dim>1</dim>
				</port>
			</input>
			<output>
				<port id="2" precision="FP32" names="19">
					<dim>1</dim>
					<dim>1</dim>
					<dim>300</dim>
					<dim>300</dim>
				</port>
			</output>
		</layer>
		<layer id="31" name="blur.weight2730" type="Const" version="opset1">
			<data element_type="f32" shape="1, 1, 5, 5" offset="20" size="100"/>
			<output>
				<port id="0" precision="FP32" names="blur.weight">
					<dim>1</dim>
					<dim>1</dim>
					<dim>5</dim>
					<dim>5</dim>
				</port>
			</output>
		</layer>
		<layer id="32" name="Conv_26" type="Convolution" version="opset1">
			<data strides="1, 1" dilations="1, 1" pads_begin="2, 2" pads_end="2, 2" auto_pad="explicit"/>
			<input>
				<port id="0" precision="FP32">
					<dim>1</dim>
					<dim>1</dim>
					<dim>300</dim>
					<dim>300</dim>
				</port>
				<port id="1" precision="FP32">
					<dim>1</dim>
					<dim>1</dim>
					<dim>5</dim>
					<dim>5</dim>
				</port>
			</input>
			<output>
				<port id="2" precision="FP32" names="28">
					<dim>1</dim>
					<dim>1</dim>
					<dim>300</dim>
					<dim>300</dim>
				</port>
			</output>
		</layer>
		<layer id="33" name="Constant_27" type="Const" version="opset1">
			<data element_type="i32" shape="" offset="0" size="4"/>
			<output>
				<port id="0" precision="I32" names="29"/>
			</output>
		</layer>
		<layer id="34" name="Gather_28/axis" type="Const" version="opset1">
			<data element_type="i64" shape="" offset="4" size="8"/>
			<output>
				<port id="0" precision="I64"/>
			</output>
		</layer>
		<layer id="35" name="Gather_2885" type="Gather" version="opset7">
			<data batch_dims="0"/>
			<input>
				<port id="0" precision="FP32">
					<dim>1</dim>
					<dim>1</dim>
					<dim>300</dim>
					<dim>300</dim>
				</port>
				<port id="1" precision="I32"/>
				<port id="2" precision="I64"/>
			</input>
			<output>
				<port id="3" precision="FP32" names="30">
					<dim>1</dim>
					<dim>300</dim>
					<dim>300</dim>
				</port>
			</output>
		</layer>
		<layer id="36" name="Constant_29" type="Const" version="opset1">
			<data element_type="i32" shape="" offset="0" size="4"/>
			<output>
				<port id="0" precision="I32" names="31"/>
			</output>
		</layer>
		<layer id="37" name="Gather_30/axis" type="Const" version="opset1">
			<data element_type="i64" shape="" offset="4" size="8"/>
			<output>
				<port id="0" precision="I64"/>
			</output>
		</layer>
		<layer id="38" name="Gather_3081" type="Gather" version="opset7">
			<data batch_dims="0"/>
			<input>
				<port id="0" precision="FP32">
					<dim>1</dim>
					<dim>300</dim>
					<dim>300</dim>
				</port>
				<port id="1" precision="I32"/>
				<port id="2" precision="I64"/>
			</input>
			<output>
				<port id="3" precision="FP32" names="32">
					<dim>300</dim>
					<dim>300</dim>
				</port>
			</output>
		</layer>
		<layer id="39" name="Unsqueeze_37/Dims" type="Const" version="opset1">
			<data element_type="i64" shape="1" offset="12" size="8"/>
			<output>
				<port id="0" precision="I64">
					<dim>1</dim>
				</port>
			</output>
		</layer>
		<layer id="40" name="Unsqueeze_37/Unsqueeze" type="Unsqueeze" version="opset1">
			<input>
				<port id="0" precision="FP32">
					<dim>300</dim>
					<dim>300</dim>
				</port>
				<port id="1" precision="I64">
					<dim>1</dim>
				</port>
			</input>
			<output>
				<port id="2" precision="FP32" names="39">
					<dim>300</dim>
					<dim>300</dim>
					<dim>1</dim>
				</port>
			</output>
		</layer>
		<layer id="41" name="Constant_8" type="Const" version="opset1">
			<data element_type="i32" shape="" offset="0" size="4"/>
			<output>
				<port id="0" precision="I32" names="10"/>
			</output>
		</layer>
		<layer id="42" name="Gather_9/axis" type="Const" version="opset1">
			<data element_type="i64" shape="" offset="4" size="8"/>
			<output>
				<port id="0" precision="I64"/>
			</output>
		</layer>
		<layer id="43" name="Gather_983" type="Gather" version="opset7">
			<data batch_dims="0"/>
			<input>
				<port id="0" precision="FP32">
					<dim>1</dim>
					<dim>300</dim>
					<dim>300</dim>
					<dim>3</dim>
				</port>
				<port id="1" precision="I32"/>
				<port id="2" precision="I64"/>
			</input>
			<output>
				<port id="3" precision="FP32" names="11">
					<dim>300</dim>
					<dim>300</dim>
					<dim>3</dim>
				</port>
			</output>
		</layer>
		<layer id="44" name="Constant_10" type="Const" version="opset1">
			<data element_type="i32" shape="" offset="124" size="4"/>
			<output>
				<port id="0" precision="I32" names="12"/>
			</output>
		</layer>
		<layer id="45" name="Gather_11/axis" type="Const" version="opset1">
			<data element_type="i64" shape="" offset="12" size="8"/>
			<output>
				<port id="0" precision="I64"/>
			</output>
		</layer>
		<layer id="46" name="Gather_1189" type="Gather" version="opset7">
			<data batch_dims="0"/>
			<input>
				<port id="0" precision="FP32">
					<dim>300</dim>
					<dim>300</dim>
					<dim>3</dim>
				</port>
				<port id="1" precision="I32"/>
				<port id="2" precision="I64"/>
			</input>
			<output>
				<port id="3" precision="FP32" names="13,20">
					<dim>300</dim>
					<dim>300</dim>
				</port>
			</output>
		</layer>
		<layer id="47" name="Unsqueeze_19/Dims" type="Const" version="opset1">
			<data element_type="i64" shape="1" offset="4" size="8"/>
			<output>
				<port id="0" precision="I64">
					<dim>1</dim>
				</port>
			</output>
		</layer>
		<layer id="48" name="Unsqueeze_19/Unsqueeze" type="Unsqueeze" version="opset1">
			<input>
				<port id="0" precision="FP32">
					<dim>300</dim>
					<dim>300</dim>
				</port>
				<port id="1" precision="I64">
					<dim>1</dim>
				</port>
			</input>
			<output>
				<port id="2" precision="FP32" names="21">
					<dim>1</dim>
					<dim>300</dim>
					<dim>300</dim>
				</port>
			</output>
		</layer>
		<layer id="49" name="Unsqueeze_20/Dims" type="Const" version="opset1">
			<data element_type="i64" shape="1" offset="4" size="8"/>
			<output>
				<port id="0" precision="I64">
					<dim>1</dim>
				</port>
			</output>
		</layer>
		<layer id="50" name="Unsqueeze_20/Unsqueeze" type="Unsqueeze" version="opset1">
			<input>
				<port id="0" precision="FP32">
					<dim>1</dim>
					<dim>300</dim>
					<dim>300</dim>
				</port>
				<port id="1" precision="I64">
					<dim>1</dim>
				</port>
			</input>
			<output>
				<port id="2" precision="FP32" names="22">
					<dim>1</dim>
					<dim>1</dim>
					<dim>300</dim>
					<dim>300</dim>
				</port>
			</output>
		</layer>
		<layer id="51" name="blur.weight2787" type="Const" version="opset1">
			<data element_type="f32" shape="1, 1, 5, 5" offset="20" size="100"/>
			<output>
				<port id="0" precision="FP32" names="blur.weight">
					<dim>1</dim>
					<dim>1</dim>
					<dim>5</dim>
					<dim>5</dim>
				</port>
			</output>
		</layer>
		<layer id="52" name="Conv_31" type="Convolution" version="opset1">
			<data strides="1, 1" dilations="1, 1" pads_begin="2, 2" pads_end="2, 2" auto_pad="explicit"/>
			<input>
				<port id="0" precision="FP32">
					<dim>1</dim>
					<dim>1</dim>
					<dim>300</dim>
					<dim>300</dim>
				</port>
				<port id="1" precision="FP32">
					<dim>1</dim>
					<dim>1</dim>
					<dim>5</dim>
					<dim>5</dim>
				</port>
			</input>
			<output>
				<port id="2" precision="FP32" names="33">
					<dim>1</dim>
					<dim>1</dim>
					<dim>300</dim>
					<dim>300</dim>
				</port>
			</output>
		</layer>
		<layer id="53" name="Constant_32" type="Const" version="opset1">
			<data element_type="i32" shape="" offset="0" size="4"/>
			<output>
				<port id="0" precision="I32" names="34"/>
			</output>
		</layer>
		<layer id="54" name="Gather_33/axis" type="Const" version="opset1">
			<data element_type="i64" shape="" offset="4" size="8"/>
			<output>
				<port id="0" precision="I64"/>
			</output>
		</layer>
		<layer id="55" name="Gather_3375" type="Gather" version="opset7">
			<data batch_dims="0"/>
			<input>
				<port id="0" precision="FP32">
					<dim>1</dim>
					<dim>1</dim>
					<dim>300</dim>
					<dim>300</dim>
				</port>
				<port id="1" precision="I32"/>
				<port id="2" precision="I64"/>
			</input>
			<output>
				<port id="3" precision="FP32" names="35">
					<dim>1</dim>
					<dim>300</dim>
					<dim>300</dim>
				</port>
			</output>
		</layer>
		<layer id="56" name="Constant_34" type="Const" version="opset1">
			<data element_type="i32" shape="" offset="0" size="4"/>
			<output>
				<port id="0" precision="I32" names="36"/>
			</output>
		</layer>
		<layer id="57" name="Gather_35/axis" type="Const" version="opset1">
			<data element_type="i64" shape="" offset="4" size="8"/>
			<output>
				<port id="0" precision="I64"/>
			</output>
		</layer>
		<layer id="58" name="Gather_3577" type="Gather" version="opset7">
			<data batch_dims="0"/>
			<input>
				<port id="0" precision="FP32">
					<dim>1</dim>
					<dim>300</dim>
					<dim>300</dim>
				</port>
				<port id="1" precision="I32"/>
				<port id="2" precision="I64"/>
			</input>
			<output>
				<port id="3" precision="FP32" names="37">
					<dim>300</dim>
					<dim>300</dim>
				</port>
			</output>
		</layer>
		<layer id="59" name="Unsqueeze_38/Dims" type="Const" version="opset1">
			<data element_type="i64" shape="1" offset="12" size="8"/>
			<output>
				<port id="0" precision="I64">
					<dim>1</dim>
				</port>
			</output>
		</layer>
		<layer id="60" name="Unsqueeze_38/Unsqueeze" type="Unsqueeze" version="opset1">
			<input>
				<port id="0" precision="FP32">
					<dim>300</dim>
					<dim>300</dim>
				</port>
				<port id="1" precision="I64">
					<dim>1</dim>
				</port>
			</input>
			<output>
				<port id="2" precision="FP32" names="40">
					<dim>300</dim>
					<dim>300</dim>
					<dim>1</dim>
				</port>
			</output>
		</layer>
		<layer id="61" name="Concat_39" type="Concat" version="opset1">
			<data axis="2"/>
			<input>
				<port id="0" precision="FP32">
					<dim>300</dim>
					<dim>300</dim>
					<dim>1</dim>
				</port>
				<port id="1" precision="FP32">
					<dim>300</dim>
					<dim>300</dim>
					<dim>1</dim>
				</port>
				<port id="2" precision="FP32">
					<dim>300</dim>
					<dim>300</dim>
					<dim>1</dim>
				</port>
			</input>
			<output>
				<port id="3" precision="FP32" names="41">
					<dim>300</dim>
					<dim>300</dim>
					<dim>3</dim>
				</port>
			</output>
		</layer>
		<layer id="62" name="Unsqueeze_40/Dims" type="Const" version="opset1">
			<data element_type="i64" shape="1" offset="4" size="8"/>
			<output>
				<port id="0" precision="I64">
					<dim>1</dim>
				</port>
			</output>
		</layer>
		<layer id="63" name="42" type="Unsqueeze" version="opset1">
			<input>
				<port id="0" precision="FP32">
					<dim>300</dim>
					<dim>300</dim>
					<dim>3</dim>
				</port>
				<port id="1" precision="I64">
					<dim>1</dim>
				</port>
			</input>
			<output>
				<port id="2" precision="FP32" names="42">
					<dim>1</dim>
					<dim>300</dim>
					<dim>300</dim>
					<dim>3</dim>
				</port>
			</output>
		</layer>
		<layer id="64" name="42/sink_port_0" type="Result" version="opset1">
			<input>
				<port id="0" precision="FP32">
					<dim>1</dim>
					<dim>300</dim>
					<dim>300</dim>
					<dim>3</dim>
				</port>
			</input>
		</layer>
	</layers>
	<edges>
		<edge from-layer="0" from-port="0" to-layer="43" to-port="0"/>
		<edge from-layer="0" from-port="0" to-layer="3" to-port="0"/>
		<edge from-layer="0" from-port="0" to-layer="23" to-port="0"/>
		<edge from-layer="1" from-port="0" to-layer="3" to-port="1"/>
		<edge from-layer="2" from-port="0" to-layer="3" to-port="2"/>
		<edge from-layer="3" from-port="3" to-layer="6" to-port="0"/>
		<edge from-layer="4" from-port="0" to-layer="6" to-port="1"/>
		<edge from-layer="5" from-port="0" to-layer="6" to-port="2"/>
		<edge from-layer="6" from-port="3" to-layer="8" to-port="0"/>
		<edge from-layer="7" from-port="0" to-layer="8" to-port="1"/>
		<edge from-layer="8" from-port="2" to-layer="10" to-port="0"/>
		<edge from-layer="9" from-port="0" to-layer="10" to-port="1"/>
		<edge from-layer="10" from-port="2" to-layer="12" to-port="0"/>
		<edge from-layer="11" from-port="0" to-layer="12" to-port="1"/>
		<edge from-layer="12" from-port="2" to-layer="15" to-port="0"/>
		<edge from-layer="13" from-port="0" to-layer="15" to-port="1"/>
		<edge from-layer="14" from-port="0" to-layer="15" to-port="2"/>
		<edge from-layer="15" from-port="3" to-layer="18" to-port="0"/>
		<edge from-layer="16" from-port="0" to-layer="18" to-port="1"/>
		<edge from-layer="17" from-port="0" to-layer="18" to-port="2"/>
		<edge from-layer="18" from-port="3" to-layer="20" to-port="0"/>
		<edge from-layer="19" from-port="0" to-layer="20" to-port="1"/>
		<edge from-layer="20" from-port="2" to-layer="61" to-port="0"/>
		<edge from-layer="21" from-port="0" to-layer="23" to-port="1"/>
		<edge from-layer="22" from-port="0" to-layer="23" to-port="2"/>
		<edge from-layer="23" from-port="3" to-layer="26" to-port="0"/>
		<edge from-layer="24" from-port="0" to-layer="26" to-port="1"/>
		<edge from-layer="25" from-port="0" to-layer="26" to-port="2"/>
		<edge from-layer="26" from-port="3" to-layer="28" to-port="0"/>
		<edge from-layer="27" from-port="0" to-layer="28" to-port="1"/>
		<edge from-layer="28" from-port="2" to-layer="30" to-port="0"/>
		<edge from-layer="29" from-port="0" to-layer="30" to-port="1"/>
		<edge from-layer="30" from-port="2" to-layer="32" to-port="0"/>
		<edge from-layer="31" from-port="0" to-layer="32" to-port="1"/>
		<edge from-layer="32" from-port="2" to-layer="35" to-port="0"/>
		<edge from-layer="33" from-port="0" to-layer="35" to-port="1"/>
		<edge from-layer="34" from-port="0" to-layer="35" to-port="2"/>
		<edge from-layer="35" from-port="3" to-layer="38" to-port="0"/>
		<edge from-layer="36" from-port="0" to-layer="38" to-port="1"/>
		<edge from-layer="37" from-port="0" to-layer="38" to-port="2"/>
		<edge from-layer="38" from-port="3" to-layer="40" to-port="0"/>
		<edge from-layer="39" from-port="0" to-layer="40" to-port="1"/>
		<edge from-layer="40" from-port="2" to-layer="61" to-port="1"/>
		<edge from-layer="41" from-port="0" to-layer="43" to-port="1"/>
		<edge from-layer="42" from-port="0" to-layer="43" to-port="2"/>
		<edge from-layer="43" from-port="3" to-layer="46" to-port="0"/>
		<edge from-layer="44" from-port="0" to-layer="46" to-port="1"/>
		<edge from-layer="45" from-port="0" to-layer="46" to-port="2"/>
		<edge from-layer="46" from-port="3" to-layer="48" to-port="0"/>
		<edge from-layer="47" from-port="0" to-layer="48" to-port="1"/>
		<edge from-layer="48" from-port="2" to-layer="50" to-port="0"/>
		<edge from-layer="49" from-port="0" to-layer="50" to-port="1"/>
		<edge from-layer="50" from-port="2" to-layer="52" to-port="0"/>
		<edge from-layer="51" from-port="0" to-layer="52" to-port="1"/>
		<edge from-layer="52" from-port="2" to-layer="55" to-port="0"/>
		<edge from-layer="53" from-port="0" to-layer="55" to-port="1"/>
		<edge from-layer="54" from-port="0" to-layer="55" to-port="2"/>
		<edge from-layer="55" from-port="3" to-layer="58" to-port="0"/>
		<edge from-layer="56" from-port="0" to-layer="58" to-port="1"/>
		<edge from-layer="57" from-port="0" to-layer="58" to-port="2"/>
		<edge from-layer="58" from-port="3" to-layer="60" to-port="0"/>
		<edge from-layer="59" from-port="0" to-layer="60" to-port="1"/>
		<edge from-layer="60" from-port="2" to-layer="61" to-port="2"/>
		<edge from-layer="61" from-port="3" to-layer="63" to-port="0"/>
		<edge from-layer="62" from-port="0" to-layer="63" to-port="1"/>
		<edge from-layer="63" from-port="2" to-layer="64" to-port="0"/>
	</edges>
	<meta_data>
		<MO_version value="2021.4.1-3926-14e67d86634-releases/2021/4"/>
		<cli_parameters>
			<caffe_parser_path value="DIR"/>
			<data_type value="float"/>
			<disable_nhwc_to_nchw value="False"/>
			<disable_omitting_optional value="False"/>
			<disable_resnet_optimization value="False"/>
			<disable_weights_compression value="False"/>
			<enable_concat_optimization value="False"/>
			<enable_flattening_nested_params value="False"/>
			<enable_ssd_gluoncv value="False"/>
			<extensions value="DIR"/>
			<framework value="onnx"/>
			<freeze_placeholder_with_value value="{}"/>
			<generate_deprecated_IR_V7 value="False"/>
			<input_model value="DIR/model.onnx"/>
			<input_model_is_text value="False"/>
			<k value="DIR/CustomLayersMapping.xml"/>
			<keep_shape_ops value="True"/>
			<legacy_ir_generation value="False"/>
			<legacy_mxnet_model value="False"/>
			<log_level value="ERROR"/>
			<mean_scale_values value="{}"/>
			<mean_values value="()"/>
			<model_name value="model"/>
			<output_dir value="DIR"/>
			<placeholder_data_types value="{}"/>
			<progress value="False"/>
			<remove_memory value="False"/>
			<remove_output_softmax value="False"/>
			<reverse_input_channels value="False"/>
			<save_params_from_nd value="False"/>
			<scale_values value="()"/>
			<silent value="False"/>
			<static_shape value="False"/>
			<stream_output value="False"/>
			<transform value=""/>
			<unset unset_cli_parameters="batch, counts, disable_fusing, disable_gfusing, finegrain_fusing, input, input_checkpoint, input_meta_graph, input_proto, input_shape, input_symbol, mean_file, mean_file_offsets, move_to_preprocess, nd_prefix_name, output, placeholder_shapes, pretrained_model_name, saved_model_dir, saved_model_tags, scale, tensorboard_logdir, tensorflow_custom_layer_libraries, tensorflow_custom_operations_config_update, tensorflow_object_detection_api_pipeline_config, tensorflow_use_custom_operations_config, transformations_config"/>
		</cli_parameters>
	</meta_data>
</net>
