<?xml version="1.0" ?>
<net name="model" version="10">
	<layers>
		<layer id="0" name="input" type="Parameter" version="opset1">
			<data shape="1, 3, 300, 300" element_type="f32"/>
			<output>
				<port id="0" precision="FP32" names="input">
					<dim>1</dim>
					<dim>3</dim>
					<dim>300</dim>
					<dim>300</dim>
				</port>
			</output>
		</layer>
		<layer id="1" name="Constant_12" type="Const" version="opset1">
			<data element_type="f32" shape="1, 1, 3, 3" offset="0" size="36"/>
			<output>
				<port id="0" precision="FP32" names="13">
					<dim>1</dim>
					<dim>1</dim>
					<dim>3</dim>
					<dim>3</dim>
				</port>
			</output>
		</layer>
		<layer id="2" name="Unsqueeze_16/Unsqueeze" type="Const" version="opset1">
			<data element_type="i64" shape="1" offset="36" size="8"/>
			<output>
				<port id="0" precision="I64" names="17">
					<dim>1</dim>
				</port>
			</output>
		</layer>
		<layer id="3" name="Shape_3" type="ShapeOf" version="opset3">
			<data output_type="i64"/>
			<input>
				<port id="0" precision="FP32">
					<dim>1</dim>
					<dim>3</dim>
					<dim>300</dim>
					<dim>300</dim>
				</port>
			</input>
			<output>
				<port id="1" precision="I64" names="4">
					<dim>4</dim>
				</port>
			</output>
		</layer>
		<layer id="4" name="Constant_4" type="Const" version="opset1">
			<data element_type="i32" shape="" offset="44" size="4"/>
			<output>
				<port id="0" precision="I32" names="5"/>
			</output>
		</layer>
		<layer id="5" name="Gather_5/axis" type="Const" version="opset1">
			<data element_type="i64" shape="" offset="48" size="8"/>
			<output>
				<port id="0" precision="I64"/>
			</output>
		</layer>
		<layer id="6" name="Gather_5188" type="Gather" version="opset7">
			<data batch_dims="0"/>
			<input>
				<port id="0" precision="I64">
					<dim>4</dim>
				</port>
				<port id="1" precision="I32"/>
				<port id="2" precision="I64"/>
			</input>
			<output>
				<port id="3" precision="I64" names="6"/>
			</output>
		</layer>
		<layer id="7" name="Unsqueeze_17/Dims" type="Const" version="opset1">
			<data element_type="i64" shape="1" offset="48" size="8"/>
			<output>
				<port id="0" precision="I64">
					<dim>1</dim>
				</port>
			</output>
		</layer>
		<layer id="8" name="Unsqueeze_17/Unsqueeze" type="Unsqueeze" version="opset1">
			<input>
				<port id="0" precision="I64"/>
				<port id="1" precision="I64">
					<dim>1</dim>
				</port>
			</input>
			<output>
				<port id="2" precision="I64" names="18">
					<dim>1</dim>
				</port>
			</output>
		</layer>
		<layer id="9" name="Unsqueeze_18/Unsqueeze" type="Const" version="opset1">
			<data element_type="i64" shape="1" offset="36" size="8"/>
			<output>
				<port id="0" precision="I64" names="19">
					<dim>1</dim>
				</port>
			</output>
		</layer>
		<layer id="10" name="Unsqueeze_19/Unsqueeze" type="Const" version="opset1">
			<data element_type="i64" shape="1" offset="36" size="8"/>
			<output>
				<port id="0" precision="I64" names="20">
					<dim>1</dim>
				</port>
			</output>
		</layer>
		<layer id="11" name="Concat_20" type="Concat" version="opset1">
			<data axis="0"/>
			<input>
				<port id="0" precision="I64">
					<dim>1</dim>
				</port>
				<port id="1" precision="I64">
					<dim>1</dim>
				</port>
				<port id="2" precision="I64">
					<dim>1</dim>
				</port>
				<port id="3" precision="I64">
					<dim>1</dim>
				</port>
			</input>
			<output>
				<port id="4" precision="I64" names="21">
					<dim>4</dim>
				</port>
			</output>
		</layer>
		<layer id="12" name="Constant_21" type="Const" version="opset1">
			<data element_type="i64" shape="1" offset="36" size="8"/>
			<output>
				<port id="0" precision="I64" names="22">
					<dim>1</dim>
				</port>
			</output>
		</layer>
		<layer id="13" name="Reshape_22" type="Reshape" version="opset1">
			<data special_zero="true"/>
			<input>
				<port id="0" precision="I64">
					<dim>4</dim>
				</port>
				<port id="1" precision="I64">
					<dim>1</dim>
				</port>
			</input>
			<output>
				<port id="2" precision="I64" names="23">
					<dim>4</dim>
				</port>
			</output>
		</layer>
		<layer id="14" name="ConstantOfShape_24/Broadcast/FillValue" type="Const" version="opset1">
			<data element_type="i64" shape="1" offset="56" size="8"/>
			<output>
				<port id="0" precision="I64">
					<dim>1</dim>
				</port>
			</output>
		</layer>
		<layer id="15" name="Shape_23" type="ShapeOf" version="opset3">
			<data output_type="i64"/>
			<input>
				<port id="0" precision="I64">
					<dim>4</dim>
				</port>
			</input>
			<output>
				<port id="1" precision="I64" names="24">
					<dim>1</dim>
				</port>
			</output>
		</layer>
		<layer id="16" name="ConstantOfShape_24/Broadcast" type="Broadcast" version="opset3">
			<data mode="numpy"/>
			<input>
				<port id="0" precision="I64">
					<dim>1</dim>
				</port>
				<port id="1" precision="I64">
					<dim>1</dim>
				</port>
			</input>
			<output>
				<port id="2" precision="I64" names="25">
					<dim>4</dim>
				</port>
			</output>
		</layer>
		<layer id="17" name="Mul_26/Negate" type="Negative" version="opset1">
			<input>
				<port id="0" precision="I64">
					<dim>4</dim>
				</port>
			</input>
			<output>
				<port id="1" precision="I64" names="27">
					<dim>4</dim>
				</port>
			</output>
		</layer>
		<layer id="18" name="Equal_27" type="Equal" version="opset1">
			<input>
				<port id="0" precision="I64">
					<dim>4</dim>
				</port>
				<port id="1" precision="I64">
					<dim>4</dim>
				</port>
			</input>
			<output>
				<port id="2" precision="BOOL" names="28">
					<dim>4</dim>
				</port>
			</output>
		</layer>
		<layer id="19" name="Where_28" type="Select" version="opset1">
			<data auto_broadcast="numpy"/>
			<input>
				<port id="0" precision="BOOL">
					<dim>4</dim>
				</port>
				<port id="1" precision="I64">
					<dim>4</dim>
				</port>
				<port id="2" precision="I64">
					<dim>4</dim>
				</port>
			</input>
			<output>
				<port id="3" precision="I64" names="29">
					<dim>4</dim>
				</port>
			</output>
		</layer>
		<layer id="20" name="Expand_29" type="Broadcast" version="opset3">
			<data mode="bidirectional"/>
			<input>
				<port id="0" precision="FP32">
					<dim>1</dim>
					<dim>1</dim>
					<dim>3</dim>
					<dim>3</dim>
				</port>
				<port id="1" precision="I64">
					<dim>4</dim>
				</port>
			</input>
			<output>
				<port id="2" precision="FP32" names="30">
					<dim>1</dim>
					<dim>3</dim>
					<dim>3</dim>
					<dim>3</dim>
				</port>
			</output>
		</layer>
		<layer id="21" name="Shape_33" type="ShapeOf" version="opset3">
			<data output_type="i64"/>
			<input>
				<port id="0" precision="FP32">
					<dim>1</dim>
					<dim>3</dim>
					<dim>3</dim>
					<dim>3</dim>
				</port>
			</input>
			<output>
				<port id="1" precision="I64" names="34">
					<dim>4</dim>
				</port>
			</output>
		</layer>
		<layer id="22" name="Constant_34" type="Const" version="opset1">
			<data element_type="i32" shape="" offset="64" size="4"/>
			<output>
				<port id="0" precision="I32" names="35"/>
			</output>
		</layer>
		<layer id="23" name="Gather_35/axis" type="Const" version="opset1">
			<data element_type="i64" shape="" offset="48" size="8"/>
			<output>
				<port id="0" precision="I64"/>
			</output>
		</layer>
		<layer id="24" name="Gather_35186" type="Gather" version="opset7">
			<data batch_dims="0"/>
			<input>
				<port id="0" precision="I64">
					<dim>4</dim>
				</port>
				<port id="1" precision="I32"/>
				<port id="2" precision="I64"/>
			</input>
			<output>
				<port id="3" precision="I64" names="36"/>
			</output>
		</layer>
		<layer id="25" name="Constant_40" type="Const" version="opset1">
			<data element_type="i64" shape="" offset="68" size="8"/>
			<output>
				<port id="0" precision="I64" names="41"/>
			</output>
		</layer>
		<layer id="26" name="Div_41" type="Divide" version="opset1">
			<data auto_broadcast="numpy" m_pythondiv="true"/>
			<input>
				<port id="0" precision="I64"/>
				<port id="1" precision="I64"/>
			</input>
			<output>
				<port id="2" precision="I64" names="42,43,44"/>
			</output>
		</layer>
		<layer id="27" name="Unsqueeze_49/Dims" type="Const" version="opset1">
			<data element_type="i64" shape="1" offset="48" size="8"/>
			<output>
				<port id="0" precision="I64">
					<dim>1</dim>
				</port>
			</output>
		</layer>
		<layer id="28" name="Unsqueeze_49/Unsqueeze" type="Unsqueeze" version="opset1">
			<input>
				<port id="0" precision="I64"/>
				<port id="1" precision="I64">
					<dim>1</dim>
				</port>
			</input>
			<output>
				<port id="2" precision="I64" names="50">
					<dim>1</dim>
				</port>
			</output>
		</layer>
		<layer id="29" name="Unsqueeze_50/Dims" type="Const" version="opset1">
			<data element_type="i64" shape="1" offset="48" size="8"/>
			<output>
				<port id="0" precision="I64">
					<dim>1</dim>
				</port>
			</output>
		</layer>
		<layer id="30" name="Unsqueeze_50/Unsqueeze" type="Unsqueeze" version="opset1">
			<input>
				<port id="0" precision="I64"/>
				<port id="1" precision="I64">
					<dim>1</dim>
				</port>
			</input>
			<output>
				<port id="2" precision="I64" names="51">
					<dim>1</dim>
				</port>
			</output>
		</layer>
		<layer id="31" name="Shape_30" type="ShapeOf" version="opset3">
			<data output_type="i64"/>
			<input>
				<port id="0" precision="FP32">
					<dim>1</dim>
					<dim>3</dim>
					<dim>3</dim>
					<dim>3</dim>
				</port>
			</input>
			<output>
				<port id="1" precision="I64" names="31">
					<dim>4</dim>
				</port>
			</output>
		</layer>
		<layer id="32" name="Constant_31" type="Const" version="opset1">
			<data element_type="i32" shape="" offset="76" size="4"/>
			<output>
				<port id="0" precision="I32" names="32"/>
			</output>
		</layer>
		<layer id="33" name="Gather_32/axis" type="Const" version="opset1">
			<data element_type="i64" shape="" offset="48" size="8"/>
			<output>
				<port id="0" precision="I64"/>
			</output>
		</layer>
		<layer id="34" name="Gather_32176" type="Gather" version="opset7">
			<data batch_dims="0"/>
			<input>
				<port id="0" precision="I64">
					<dim>4</dim>
				</port>
				<port id="1" precision="I32"/>
				<port id="2" precision="I64"/>
			</input>
			<output>
				<port id="3" precision="I64" names="33"/>
			</output>
		</layer>
		<layer id="35" name="Constant_36" type="Const" version="opset1">
			<data element_type="i64" shape="" offset="68" size="8"/>
			<output>
				<port id="0" precision="I64" names="37"/>
			</output>
		</layer>
		<layer id="36" name="Div_37" type="Divide" version="opset1">
			<data auto_broadcast="numpy" m_pythondiv="true"/>
			<input>
				<port id="0" precision="I64"/>
				<port id="1" precision="I64"/>
			</input>
			<output>
				<port id="2" precision="I64" names="38,39,40"/>
			</output>
		</layer>
		<layer id="37" name="Unsqueeze_51/Dims" type="Const" version="opset1">
			<data element_type="i64" shape="1" offset="48" size="8"/>
			<output>
				<port id="0" precision="I64">
					<dim>1</dim>
				</port>
			</output>
		</layer>
		<layer id="38" name="Unsqueeze_51/Unsqueeze" type="Unsqueeze" version="opset1">
			<input>
				<port id="0" precision="I64"/>
				<port id="1" precision="I64">
					<dim>1</dim>
				</port>
			</input>
			<output>
				<port id="2" precision="I64" names="52">
					<dim>1</dim>
				</port>
			</output>
		</layer>
		<layer id="39" name="Unsqueeze_52/Dims" type="Const" version="opset1">
			<data element_type="i64" shape="1" offset="48" size="8"/>
			<output>
				<port id="0" precision="I64">
					<dim>1</dim>
				</port>
			</output>
		</layer>
		<layer id="40" name="Unsqueeze_52/Unsqueeze" type="Unsqueeze" version="opset1">
			<input>
				<port id="0" precision="I64"/>
				<port id="1" precision="I64">
					<dim>1</dim>
				</port>
			</input>
			<output>
				<port id="2" precision="I64" names="53">
					<dim>1</dim>
				</port>
			</output>
		</layer>
		<layer id="41" name="Concat_53" type="Concat" version="opset1">
			<data axis="0"/>
			<input>
				<port id="0" precision="I64">
					<dim>1</dim>
				</port>
				<port id="1" precision="I64">
					<dim>1</dim>
				</port>
				<port id="2" precision="I64">
					<dim>1</dim>
				</port>
				<port id="3" precision="I64">
					<dim>1</dim>
				</port>
			</input>
			<output>
				<port id="4" precision="I64" names="54,62">
					<dim>4</dim>
				</port>
			</output>
		</layer>
		<layer id="42" name="ConstantOfShape_62/Broadcast/FillValue" type="Const" version="opset1">
			<data element_type="i64" shape="1" offset="48" size="8"/>
			<output>
				<port id="0" precision="I64">
					<dim>1</dim>
				</port>
			</output>
		</layer>
		<layer id="43" name="Mul_59" type="Const" version="opset1">
			<data element_type="i64" shape="1" offset="80" size="8"/>
			<output>
				<port id="0" precision="I64" names="60">
					<dim>1</dim>
				</port>
			</output>
		</layer>
		<layer id="44" name="Unsqueeze_44/Dims" type="Const" version="opset1">
			<data element_type="i64" shape="1" offset="48" size="8"/>
			<output>
				<port id="0" precision="I64">
					<dim>1</dim>
				</port>
			</output>
		</layer>
		<layer id="45" name="Unsqueeze_44/Unsqueeze" type="Unsqueeze" version="opset1">
			<input>
				<port id="0" precision="I64"/>
				<port id="1" precision="I64">
					<dim>1</dim>
				</port>
			</input>
			<output>
				<port id="2" precision="I64" names="45">
					<dim>1</dim>
				</port>
			</output>
		</layer>
		<layer id="46" name="Unsqueeze_45/Dims" type="Const" version="opset1">
			<data element_type="i64" shape="1" offset="48" size="8"/>
			<output>
				<port id="0" precision="I64">
					<dim>1</dim>
				</port>
			</output>
		</layer>
		<layer id="47" name="Unsqueeze_45/Unsqueeze" type="Unsqueeze" version="opset1">
			<input>
				<port id="0" precision="I64"/>
				<port id="1" precision="I64">
					<dim>1</dim>
				</port>
			</input>
			<output>
				<port id="2" precision="I64" names="46">
					<dim>1</dim>
				</port>
			</output>
		</layer>
		<layer id="48" name="Unsqueeze_46/Dims" type="Const" version="opset1">
			<data element_type="i64" shape="1" offset="48" size="8"/>
			<output>
				<port id="0" precision="I64">
					<dim>1</dim>
				</port>
			</output>
		</layer>
		<layer id="49" name="Unsqueeze_46/Unsqueeze" type="Unsqueeze" version="opset1">
			<input>
				<port id="0" precision="I64"/>
				<port id="1" precision="I64">
					<dim>1</dim>
				</port>
			</input>
			<output>
				<port id="2" precision="I64" names="47">
					<dim>1</dim>
				</port>
			</output>
		</layer>
		<layer id="50" name="Unsqueeze_47/Dims" type="Const" version="opset1">
			<data element_type="i64" shape="1" offset="48" size="8"/>
			<output>
				<port id="0" precision="I64">
					<dim>1</dim>
				</port>
			</output>
		</layer>
		<layer id="51" name="Unsqueeze_47/Unsqueeze" type="Unsqueeze" version="opset1">
			<input>
				<port id="0" precision="I64"/>
				<port id="1" precision="I64">
					<dim>1</dim>
				</port>
			</input>
			<output>
				<port id="2" precision="I64" names="48">
					<dim>1</dim>
				</port>
			</output>
		</layer>
		<layer id="52" name="Concat_48" type="Concat" version="opset1">
			<data axis="0"/>
			<input>
				<port id="0" precision="I64">
					<dim>1</dim>
				</port>
				<port id="1" precision="I64">
					<dim>1</dim>
				</port>
				<port id="2" precision="I64">
					<dim>1</dim>
				</port>
				<port id="3" precision="I64">
					<dim>1</dim>
				</port>
			</input>
			<output>
				<port id="4" precision="I64" names="49">
					<dim>4</dim>
				</port>
			</output>
		</layer>
		<layer id="53" name="Shape_55" type="ShapeOf" version="opset3">
			<data output_type="i64"/>
			<input>
				<port id="0" precision="I64">
					<dim>4</dim>
				</port>
			</input>
			<output>
				<port id="1" precision="I64" names="56">
					<dim>1</dim>
				</port>
			</output>
		</layer>
		<layer id="54" name="Constant_54" type="Const" version="opset1">
			<data element_type="i32" shape="1" offset="88" size="4"/>
			<output>
				<port id="0" precision="I32" names="55">
					<dim>1</dim>
				</port>
			</output>
		</layer>
		<layer id="55" name="Gather_56/axis" type="Const" version="opset1">
			<data element_type="i64" shape="" offset="48" size="8"/>
			<output>
				<port id="0" precision="I64"/>
			</output>
		</layer>
		<layer id="56" name="Gather_56190" type="Gather" version="opset7">
			<data batch_dims="0"/>
			<input>
				<port id="0" precision="I64">
					<dim>1</dim>
				</port>
				<port id="1" precision="I32">
					<dim>1</dim>
				</port>
				<port id="2" precision="I64"/>
			</input>
			<output>
				<port id="3" precision="I64" names="57">
					<dim>1</dim>
				</port>
			</output>
		</layer>
		<layer id="57" name="Sub_60" type="Subtract" version="opset1">
			<data auto_broadcast="numpy"/>
			<input>
				<port id="0" precision="I64">
					<dim>1</dim>
				</port>
				<port id="1" precision="I64">
					<dim>1</dim>
				</port>
			</input>
			<output>
				<port id="2" precision="I64" names="61">
					<dim>1</dim>
				</port>
			</output>
		</layer>
		<layer id="58" name="ConstantOfShape_62/Broadcast" type="Broadcast" version="opset3">
			<data mode="numpy"/>
			<input>
				<port id="0" precision="I64">
					<dim>1</dim>
				</port>
				<port id="1" precision="I64">
					<dim>1</dim>
				</port>
			</input>
			<output>
				<port id="2" precision="I64" names="63">
					<dim>4</dim>
				</port>
			</output>
		</layer>
		<layer id="59" name="Concat_63" type="Concat" version="opset1">
			<data axis="0"/>
			<input>
				<port id="0" precision="I64">
					<dim>4</dim>
				</port>
				<port id="1" precision="I64">
					<dim>4</dim>
				</port>
			</input>
			<output>
				<port id="2" precision="I64" names="64">
					<dim>8</dim>
				</port>
			</output>
		</layer>
		<layer id="60" name="Constant_64" type="Const" version="opset1">
			<data element_type="i64" shape="2" offset="92" size="16"/>
			<output>
				<port id="0" precision="I64" names="65">
					<dim>2</dim>
				</port>
			</output>
		</layer>
		<layer id="61" name="Reshape_65" type="Reshape" version="opset1">
			<data special_zero="true"/>
			<input>
				<port id="0" precision="I64">
					<dim>8</dim>
				</port>
				<port id="1" precision="I64">
					<dim>2</dim>
				</port>
			</input>
			<output>
				<port id="2" precision="I64" names="66">
					<dim>4</dim>
					<dim>2</dim>
				</port>
			</output>
		</layer>
		<layer id="62" name="Slice_70/Concat13424765" type="Const" version="opset1">
			<data element_type="i64" shape="2" offset="108" size="16"/>
			<output>
				<port id="0" precision="I64">
					<dim>2</dim>
				</port>
			</output>
		</layer>
		<layer id="63" name="Slice_70/Concat133013434807" type="Const" version="opset1">
			<data element_type="i64" shape="2" offset="124" size="16"/>
			<output>
				<port id="0" precision="I64">
					<dim>2</dim>
				</port>
			</output>
		</layer>
		<layer id="64" name="Slice_70/Strides13444936" type="Const" version="opset1">
			<data element_type="i64" shape="2" offset="140" size="16"/>
			<output>
				<port id="0" precision="I64">
					<dim>2</dim>
				</port>
			</output>
		</layer>
		<layer id="65" name="Slice_70" type="StridedSlice" version="opset1">
			<data begin_mask="0, 1" end_mask="0, 1" new_axis_mask="0, 0" shrink_axis_mask="0, 0" ellipsis_mask="0, 0"/>
			<input>
				<port id="0" precision="I64">
					<dim>4</dim>
					<dim>2</dim>
				</port>
				<port id="1" precision="I64">
					<dim>2</dim>
				</port>
				<port id="2" precision="I64">
					<dim>2</dim>
				</port>
				<port id="3" precision="I64">
					<dim>2</dim>
				</port>
			</input>
			<output>
				<port id="4" precision="I64" names="71">
					<dim>4</dim>
					<dim>2</dim>
				</port>
			</output>
		</layer>
		<layer id="66" name="117" type="Const" version="opset1">
			<data element_type="i64" shape="2" offset="156" size="16"/>
			<output>
				<port id="0" precision="I64">
					<dim>2</dim>
				</port>
			</output>
		</layer>
		<layer id="67" name="Transpose_71" type="Transpose" version="opset1">
			<input>
				<port id="0" precision="I64">
					<dim>4</dim>
					<dim>2</dim>
				</port>
				<port id="1" precision="I64">
					<dim>2</dim>
				</port>
			</input>
			<output>
				<port id="2" precision="I64" names="72">
					<dim>2</dim>
					<dim>4</dim>
				</port>
			</output>
		</layer>
		<layer id="68" name="Constant_72" type="Const" version="opset1">
			<data element_type="i64" shape="1" offset="36" size="8"/>
			<output>
				<port id="0" precision="I64" names="73">
					<dim>1</dim>
				</port>
			</output>
		</layer>
		<layer id="69" name="Reshape_73" type="Reshape" version="opset1">
			<data special_zero="true"/>
			<input>
				<port id="0" precision="I64">
					<dim>2</dim>
					<dim>4</dim>
				</port>
				<port id="1" precision="I64">
					<dim>1</dim>
				</port>
			</input>
			<output>
				<port id="2" precision="I64" names="74,75">
					<dim>8</dim>
				</port>
			</output>
		</layer>
		<layer id="70" name="169_input_port_1/value" type="Const" version="opset1">
			<data element_type="i64" shape="" offset="48" size="8"/>
			<output>
				<port id="0" precision="I64"/>
			</output>
		</layer>
		<layer id="71" name="169" type="Split" version="opset1">
			<data num_splits="2"/>
			<input>
				<port id="0" precision="I64">
					<dim>8</dim>
				</port>
				<port id="1" precision="I64"/>
			</input>
			<output>
				<port id="2" precision="I64">
					<dim>4</dim>
				</port>
				<port id="3" precision="I64">
					<dim>4</dim>
				</port>
			</output>
		</layer>
		<layer id="72" name="Constant_173" type="Const" version="opset1">
			<data element_type="f32" shape="" offset="88" size="4"/>
			<output>
				<port id="0" precision="FP32"/>
			</output>
		</layer>
		<layer id="73" name="Pad_75" type="Pad" version="opset1">
			<data pad_mode="reflect"/>
			<input>
				<port id="0" precision="FP32">
					<dim>1</dim>
					<dim>3</dim>
					<dim>300</dim>
					<dim>300</dim>
				</port>
				<port id="1" precision="I64">
					<dim>4</dim>
				</port>
				<port id="2" precision="I64">
					<dim>4</dim>
				</port>
				<port id="3" precision="FP32"/>
			</input>
			<output>
				<port id="4" precision="FP32" names="76">
					<dim>1</dim>
					<dim>3</dim>
					<dim>302</dim>
					<dim>302</dim>
				</port>
			</output>
		</layer>
		<layer id="74" name="Unsqueeze_100/Unsqueeze" type="Const" version="opset1">
			<data element_type="i64" shape="1" offset="36" size="8"/>
			<output>
				<port id="0" precision="I64" names="101">
					<dim>1</dim>
				</port>
			</output>
		</layer>
		<layer id="75" name="Unsqueeze_78/Unsqueeze" type="Const" version="opset1">
			<data element_type="i64" shape="1" offset="36" size="8"/>
			<output>
				<port id="0" precision="I64" names="79">
					<dim>1</dim>
				</port>
			</output>
		</layer>
		<layer id="76" name="Unsqueeze_79/Unsqueeze" type="Const" version="opset1">
			<data element_type="i64" shape="1" offset="56" size="8"/>
			<output>
				<port id="0" precision="I64" names="80">
					<dim>1</dim>
				</port>
			</output>
		</layer>
		<layer id="77" name="Unsqueeze_80/Dims" type="Const" version="opset1">
			<data element_type="i64" shape="1" offset="48" size="8"/>
			<output>
				<port id="0" precision="I64">
					<dim>1</dim>
				</port>
			</output>
		</layer>
		<layer id="78" name="Unsqueeze_80/Unsqueeze" type="Unsqueeze" version="opset1">
			<input>
				<port id="0" precision="I64"/>
				<port id="1" precision="I64">
					<dim>1</dim>
				</port>
			</input>
			<output>
				<port id="2" precision="I64" names="81">
					<dim>1</dim>
				</port>
			</output>
		</layer>
		<layer id="79" name="Unsqueeze_81/Dims" type="Const" version="opset1">
			<data element_type="i64" shape="1" offset="48" size="8"/>
			<output>
				<port id="0" precision="I64">
					<dim>1</dim>
				</port>
			</output>
		</layer>
		<layer id="80" name="Unsqueeze_81/Unsqueeze" type="Unsqueeze" version="opset1">
			<input>
				<port id="0" precision="I64"/>
				<port id="1" precision="I64">
					<dim>1</dim>
				</port>
			</input>
			<output>
				<port id="2" precision="I64" names="82">
					<dim>1</dim>
				</port>
			</output>
		</layer>
		<layer id="81" name="Concat_82" type="Concat" version="opset1">
			<data axis="0"/>
			<input>
				<port id="0" precision="I64">
					<dim>1</dim>
				</port>
				<port id="1" precision="I64">
					<dim>1</dim>
				</port>
				<port id="2" precision="I64">
					<dim>1</dim>
				</port>
				<port id="3" precision="I64">
					<dim>1</dim>
				</port>
			</input>
			<output>
				<port id="4" precision="I64" names="83">
					<dim>4</dim>
				</port>
			</output>
		</layer>
		<layer id="82" name="Reshape_83" type="Reshape" version="opset1">
			<data special_zero="true"/>
			<input>
				<port id="0" precision="FP32">
					<dim>1</dim>
					<dim>3</dim>
					<dim>3</dim>
					<dim>3</dim>
				</port>
				<port id="1" precision="I64">
					<dim>4</dim>
				</port>
			</input>
			<output>
				<port id="2" precision="FP32">
					<dim>3</dim>
					<dim>1</dim>
					<dim>3</dim>
					<dim>3</dim>
				</port>
			</output>
		</layer>
		<layer id="83" name="Shape_84" type="ShapeOf" version="opset3">
			<data output_type="i64"/>
			<input>
				<port id="0" precision="FP32">
					<dim>3</dim>
					<dim>1</dim>
					<dim>3</dim>
					<dim>3</dim>
				</port>
			</input>
			<output>
				<port id="1" precision="I64" names="85">
					<dim>4</dim>
				</port>
			</output>
		</layer>
		<layer id="84" name="Constant_85" type="Const" version="opset1">
			<data element_type="i32" shape="" offset="88" size="4"/>
			<output>
				<port id="0" precision="I32" names="86"/>
			</output>
		</layer>
		<layer id="85" name="Gather_86/axis" type="Const" version="opset1">
			<data element_type="i64" shape="" offset="48" size="8"/>
			<output>
				<port id="0" precision="I64"/>
			</output>
		</layer>
		<layer id="86" name="Gather_86178" type="Gather" version="opset7">
			<data batch_dims="0"/>
			<input>
				<port id="0" precision="I64">
					<dim>4</dim>
				</port>
				<port id="1" precision="I32"/>
				<port id="2" precision="I64"/>
			</input>
			<output>
				<port id="3" precision="I64" names="87"/>
			</output>
		</layer>
		<layer id="87" name="Unsqueeze_101/Dims" type="Const" version="opset1">
			<data element_type="i64" shape="1" offset="48" size="8"/>
			<output>
				<port id="0" precision="I64">
					<dim>1</dim>
				</port>
			</output>
		</layer>
		<layer id="88" name="Unsqueeze_101/Unsqueeze" type="Unsqueeze" version="opset1">
			<input>
				<port id="0" precision="I64"/>
				<port id="1" precision="I64">
					<dim>1</dim>
				</port>
			</input>
			<output>
				<port id="2" precision="I64" names="102">
					<dim>1</dim>
				</port>
			</output>
		</layer>
		<layer id="89" name="Shape_87" type="ShapeOf" version="opset3">
			<data output_type="i64"/>
			<input>
				<port id="0" precision="FP32">
					<dim>1</dim>
					<dim>3</dim>
					<dim>302</dim>
					<dim>302</dim>
				</port>
			</input>
			<output>
				<port id="1" precision="I64" names="88">
					<dim>4</dim>
				</port>
			</output>
		</layer>
		<layer id="90" name="Slice_91/Concat13784897" type="Const" version="opset1">
			<data element_type="i64" shape="1" offset="172" size="8"/>
			<output>
				<port id="0" precision="I64">
					<dim>1</dim>
				</port>
			</output>
		</layer>
		<layer id="91" name="Slice_91/Concat136813794867" type="Const" version="opset1">
			<data element_type="i64" shape="1" offset="36" size="8"/>
			<output>
				<port id="0" precision="I64">
					<dim>1</dim>
				</port>
			</output>
		</layer>
		<layer id="92" name="Slice_91/Strides13804849" type="Const" version="opset1">
			<data element_type="i64" shape="1" offset="56" size="8"/>
			<output>
				<port id="0" precision="I64">
					<dim>1</dim>
				</port>
			</output>
		</layer>
		<layer id="93" name="Slice_91" type="StridedSlice" version="opset1">
			<data begin_mask="0" end_mask="0" new_axis_mask="0" shrink_axis_mask="0" ellipsis_mask="0"/>
			<input>
				<port id="0" precision="I64">
					<dim>4</dim>
				</port>
				<port id="1" precision="I64">
					<dim>1</dim>
				</port>
				<port id="2" precision="I64">
					<dim>1</dim>
				</port>
				<port id="3" precision="I64">
					<dim>1</dim>
				</port>
			</input>
			<output>
				<port id="4" precision="I64" names="92">
					<dim>1</dim>
				</port>
			</output>
		</layer>
		<layer id="94" name="Squeeze_92/Dims" type="Const" version="opset1">
			<data element_type="i64" shape="1" offset="48" size="8"/>
			<output>
				<port id="0" precision="I64">
					<dim>1</dim>
				</port>
			</output>
		</layer>
		<layer id="95" name="Squeeze_92" type="Squeeze" version="opset1">
			<input>
				<port id="0" precision="I64">
					<dim>1</dim>
				</port>
				<port id="1" precision="I64">
					<dim>1</dim>
				</port>
			</input>
			<output>
				<port id="2" precision="I64" names="93"/>
			</output>
		</layer>
		<layer id="96" name="Unsqueeze_102/Dims" type="Const" version="opset1">
			<data element_type="i64" shape="1" offset="48" size="8"/>
			<output>
				<port id="0" precision="I64">
					<dim>1</dim>
				</port>
			</output>
		</layer>
		<layer id="97" name="Unsqueeze_102/Unsqueeze" type="Unsqueeze" version="opset1">
			<input>
				<port id="0" precision="I64"/>
				<port id="1" precision="I64">
					<dim>1</dim>
				</port>
			</input>
			<output>
				<port id="2" precision="I64" names="103">
					<dim>1</dim>
				</port>
			</output>
		</layer>
		<layer id="98" name="Shape_93" type="ShapeOf" version="opset3">
			<data output_type="i64"/>
			<input>
				<port id="0" precision="FP32">
					<dim>1</dim>
					<dim>3</dim>
					<dim>302</dim>
					<dim>302</dim>
				</port>
			</input>
			<output>
				<port id="1" precision="I64" names="94">
					<dim>4</dim>
				</port>
			</output>
		</layer>
		<layer id="99" name="Slice_97/Concat14144759" type="Const" version="opset1">
			<data element_type="i64" shape="1" offset="36" size="8"/>
			<output>
				<port id="0" precision="I64">
					<dim>1</dim>
				</port>
			</output>
		</layer>
		<layer id="100" name="Slice_97/Concat140414154870" type="Const" version="opset1">
			<data element_type="i64" shape="1" offset="180" size="8"/>
			<output>
				<port id="0" precision="I64">
					<dim>1</dim>
				</port>
			</output>
		</layer>
		<layer id="101" name="Slice_97/Strides14164837" type="Const" version="opset1">
			<data element_type="i64" shape="1" offset="56" size="8"/>
			<output>
				<port id="0" precision="I64">
					<dim>1</dim>
				</port>
			</output>
		</layer>
		<layer id="102" name="Slice_97" type="StridedSlice" version="opset1">
			<data begin_mask="0" end_mask="0" new_axis_mask="0" shrink_axis_mask="0" ellipsis_mask="0"/>
			<input>
				<port id="0" precision="I64">
					<dim>4</dim>
				</port>
				<port id="1" precision="I64">
					<dim>1</dim>
				</port>
				<port id="2" precision="I64">
					<dim>1</dim>
				</port>
				<port id="3" precision="I64">
					<dim>1</dim>
				</port>
			</input>
			<output>
				<port id="4" precision="I64" names="98">
					<dim>1</dim>
				</port>
			</output>
		</layer>
		<layer id="103" name="Squeeze_98/Dims" type="Const" version="opset1">
			<data element_type="i64" shape="1" offset="48" size="8"/>
			<output>
				<port id="0" precision="I64">
					<dim>1</dim>
				</port>
			</output>
		</layer>
		<layer id="104" name="Squeeze_98" type="Squeeze" version="opset1">
			<input>
				<port id="0" precision="I64">
					<dim>1</dim>
				</port>
				<port id="1" precision="I64">
					<dim>1</dim>
				</port>
			</input>
			<output>
				<port id="2" precision="I64" names="99"/>
			</output>
		</layer>
		<layer id="105" name="Unsqueeze_103/Dims" type="Const" version="opset1">
			<data element_type="i64" shape="1" offset="48" size="8"/>
			<output>
				<port id="0" precision="I64">
					<dim>1</dim>
				</port>
			</output>
		</layer>
		<layer id="106" name="Unsqueeze_103/Unsqueeze" type="Unsqueeze" version="opset1">
			<input>
				<port id="0" precision="I64"/>
				<port id="1" precision="I64">
					<dim>1</dim>
				</port>
			</input>
			<output>
				<port id="2" precision="I64" names="104">
					<dim>1</dim>
				</port>
			</output>
		</layer>
		<layer id="107" name="Concat_104" type="Concat" version="opset1">
			<data axis="0"/>
			<input>
				<port id="0" precision="I64">
					<dim>1</dim>
				</port>
				<port id="1" precision="I64">
					<dim>1</dim>
				</port>
				<port id="2" precision="I64">
					<dim>1</dim>
				</port>
				<port id="3" precision="I64">
					<dim>1</dim>
				</port>
			</input>
			<output>
				<port id="4" precision="I64" names="105">
					<dim>4</dim>
				</port>
			</output>
		</layer>
		<layer id="108" name="Reshape_105" type="Reshape" version="opset1">
			<data special_zero="true"/>
			<input>
				<port id="0" precision="FP32">
					<dim>1</dim>
					<dim>3</dim>
					<dim>302</dim>
					<dim>302</dim>
				</port>
				<port id="1" precision="I64">
					<dim>4</dim>
				</port>
			</input>
			<output>
				<port id="2" precision="FP32" names="106">
					<dim>1</dim>
					<dim>3</dim>
					<dim>302</dim>
					<dim>302</dim>
				</port>
			</output>
		</layer>
		<layer id="109" name="4490/value44924843" type="Const" version="opset1">
			<data element_type="i64" shape="5" offset="188" size="40"/>
			<output>
				<port id="0" precision="I64">
					<dim>5</dim>
				</port>
			</output>
		</layer>
		<layer id="110" name="4490" type="Reshape" version="opset1">
			<data special_zero="true"/>
			<input>
				<port id="0" precision="FP32">
					<dim>3</dim>
					<dim>1</dim>
					<dim>3</dim>
					<dim>3</dim>
				</port>
				<port id="1" precision="I64">
					<dim>5</dim>
				</port>
			</input>
			<output>
				<port id="2" precision="FP32" names="84">
					<dim>3</dim>
					<dim>1</dim>
					<dim>1</dim>
					<dim>3</dim>
					<dim>3</dim>
				</port>
			</output>
		</layer>
		<layer id="111" name="Conv_106" type="GroupConvolution" version="opset1">
			<data strides="1, 1" pads_begin="0, 0" pads_end="0, 0" dilations="1, 1" auto_pad="explicit"/>
			<input>
				<port id="0" precision="FP32">
					<dim>1</dim>
					<dim>3</dim>
					<dim>302</dim>
					<dim>302</dim>
				</port>
				<port id="1" precision="FP32">
					<dim>3</dim>
					<dim>1</dim>
					<dim>1</dim>
					<dim>3</dim>
					<dim>3</dim>
				</port>
			</input>
			<output>
				<port id="2" precision="FP32" names="107">
					<dim>1</dim>
					<dim>3</dim>
					<dim>300</dim>
					<dim>300</dim>
				</port>
			</output>
		</layer>
		<layer id="112" name="Shape_0" type="ShapeOf" version="opset3">
			<data output_type="i64"/>
			<input>
				<port id="0" precision="FP32">
					<dim>1</dim>
					<dim>3</dim>
					<dim>300</dim>
					<dim>300</dim>
				</port>
			</input>
			<output>
				<port id="1" precision="I64" names="1">
					<dim>4</dim>
				</port>
			</output>
		</layer>
		<layer id="113" name="Constant_1" type="Const" version="opset1">
			<data element_type="i32" shape="" offset="88" size="4"/>
			<output>
				<port id="0" precision="I32" names="2"/>
			</output>
		</layer>
		<layer id="114" name="Gather_2/axis" type="Const" version="opset1">
			<data element_type="i64" shape="" offset="48" size="8"/>
			<output>
				<port id="0" precision="I64"/>
			</output>
		</layer>
		<layer id="115" name="Gather_2182" type="Gather" version="opset7">
			<data batch_dims="0"/>
			<input>
				<port id="0" precision="I64">
					<dim>4</dim>
				</port>
				<port id="1" precision="I32"/>
				<port id="2" precision="I64"/>
			</input>
			<output>
				<port id="3" precision="I64" names="3"/>
			</output>
		</layer>
		<layer id="116" name="Unsqueeze_107/Dims" type="Const" version="opset1">
			<data element_type="i64" shape="1" offset="48" size="8"/>
			<output>
				<port id="0" precision="I64">
					<dim>1</dim>
				</port>
			</output>
		</layer>
		<layer id="117" name="Unsqueeze_107/Unsqueeze" type="Unsqueeze" version="opset1">
			<input>
				<port id="0" precision="I64"/>
				<port id="1" precision="I64">
					<dim>1</dim>
				</port>
			</input>
			<output>
				<port id="2" precision="I64" names="108">
					<dim>1</dim>
				</port>
			</output>
		</layer>
		<layer id="118" name="Unsqueeze_108/Dims" type="Const" version="opset1">
			<data element_type="i64" shape="1" offset="48" size="8"/>
			<output>
				<port id="0" precision="I64">
					<dim>1</dim>
				</port>
			</output>
		</layer>
		<layer id="119" name="Unsqueeze_108/Unsqueeze" type="Unsqueeze" version="opset1">
			<input>
				<port id="0" precision="I64"/>
				<port id="1" precision="I64">
					<dim>1</dim>
				</port>
			</input>
			<output>
				<port id="2" precision="I64" names="109">
					<dim>1</dim>
				</port>
			</output>
		</layer>
		<layer id="120" name="Shape_6" type="ShapeOf" version="opset3">
			<data output_type="i64"/>
			<input>
				<port id="0" precision="FP32">
					<dim>1</dim>
					<dim>3</dim>
					<dim>300</dim>
					<dim>300</dim>
				</port>
			</input>
			<output>
				<port id="1" precision="I64" names="7">
					<dim>4</dim>
				</port>
			</output>
		</layer>
		<layer id="121" name="Constant_7" type="Const" version="opset1">
			<data element_type="i32" shape="" offset="76" size="4"/>
			<output>
				<port id="0" precision="I32" names="8"/>
			</output>
		</layer>
		<layer id="122" name="Gather_8/axis" type="Const" version="opset1">
			<data element_type="i64" shape="" offset="48" size="8"/>
			<output>
				<port id="0" precision="I64"/>
			</output>
		</layer>
		<layer id="123" name="Gather_8180" type="Gather" version="opset7">
			<data batch_dims="0"/>
			<input>
				<port id="0" precision="I64">
					<dim>4</dim>
				</port>
				<port id="1" precision="I32"/>
				<port id="2" precision="I64"/>
			</input>
			<output>
				<port id="3" precision="I64" names="9"/>
			</output>
		</layer>
		<layer id="124" name="Unsqueeze_109/Dims" type="Const" version="opset1">
			<data element_type="i64" shape="1" offset="48" size="8"/>
			<output>
				<port id="0" precision="I64">
					<dim>1</dim>
				</port>
			</output>
		</layer>
		<layer id="125" name="Unsqueeze_109/Unsqueeze" type="Unsqueeze" version="opset1">
			<input>
				<port id="0" precision="I64"/>
				<port id="1" precision="I64">
					<dim>1</dim>
				</port>
			</input>
			<output>
				<port id="2" precision="I64" names="110">
					<dim>1</dim>
				</port>
			</output>
		</layer>
		<layer id="126" name="Shape_9" type="ShapeOf" version="opset3">
			<data output_type="i64"/>
			<input>
				<port id="0" precision="FP32">
					<dim>1</dim>
					<dim>3</dim>
					<dim>300</dim>
					<dim>300</dim>
				</port>
			</input>
			<output>
				<port id="1" precision="I64" names="10">
					<dim>4</dim>
				</port>
			</output>
		</layer>
		<layer id="127" name="Constant_10" type="Const" version="opset1">
			<data element_type="i32" shape="" offset="64" size="4"/>
			<output>
				<port id="0" precision="I32" names="11"/>
			</output>
		</layer>
		<layer id="128" name="Gather_11/axis" type="Const" version="opset1">
			<data element_type="i64" shape="" offset="48" size="8"/>
			<output>
				<port id="0" precision="I64"/>
			</output>
		</layer>
		<layer id="129" name="Gather_11184" type="Gather" version="opset7">
			<data batch_dims="0"/>
			<input>
				<port id="0" precision="I64">
					<dim>4</dim>
				</port>
				<port id="1" precision="I32"/>
				<port id="2" precision="I64"/>
			</input>
			<output>
				<port id="3" precision="I64" names="12"/>
			</output>
		</layer>
		<layer id="130" name="Unsqueeze_110/Dims" type="Const" version="opset1">
			<data element_type="i64" shape="1" offset="48" size="8"/>
			<output>
				<port id="0" precision="I64">
					<dim>1</dim>
				</port>
			</output>
		</layer>
		<layer id="131" name="Unsqueeze_110/Unsqueeze" type="Unsqueeze" version="opset1">
			<input>
				<port id="0" precision="I64"/>
				<port id="1" precision="I64">
					<dim>1</dim>
				</port>
			</input>
			<output>
				<port id="2" precision="I64" names="111">
					<dim>1</dim>
				</port>
			</output>
		</layer>
		<layer id="132" name="Concat_111" type="Concat" version="opset1">
			<data axis="0"/>
			<input>
				<port id="0" precision="I64">
					<dim>1</dim>
				</port>
				<port id="1" precision="I64">
					<dim>1</dim>
				</port>
				<port id="2" precision="I64">
					<dim>1</dim>
				</port>
				<port id="3" precision="I64">
					<dim>1</dim>
				</port>
			</input>
			<output>
				<port id="4" precision="I64" names="112">
					<dim>4</dim>
				</port>
			</output>
		</layer>
		<layer id="133" name="113" type="Reshape" version="opset1">
			<data special_zero="true"/>
			<input>
				<port id="0" precision="FP32">
					<dim>1</dim>
					<dim>3</dim>
					<dim>300</dim>
					<dim>300</dim>
				</port>
				<port id="1" precision="I64">
					<dim>4</dim>
				</port>
			</input>
			<output>
				<port id="2" precision="FP32" names="113">
					<dim>1</dim>
					<dim>3</dim>
					<dim>300</dim>
					<dim>300</dim>
				</port>
			</output>
		</layer>
		<layer id="134" name="113/sink_port_0" type="Result" version="opset1">
			<input>
				<port id="0" precision="FP32">
					<dim>1</dim>
					<dim>3</dim>
					<dim>300</dim>
					<dim>300</dim>
				</port>
			</input>
		</layer>
	</layers>
	<edges>
		<edge from-layer="0" from-port="0" to-layer="3" to-port="0"/>
		<edge from-layer="0" from-port="0" to-layer="126" to-port="0"/>
		<edge from-layer="0" from-port="0" to-layer="120" to-port="0"/>
		<edge from-layer="0" from-port="0" to-layer="73" to-port="0"/>
		<edge from-layer="0" from-port="0" to-layer="112" to-port="0"/>
		<edge from-layer="1" from-port="0" to-layer="20" to-port="0"/>
		<edge from-layer="2" from-port="0" to-layer="11" to-port="0"/>
		<edge from-layer="3" from-port="1" to-layer="6" to-port="0"/>
		<edge from-layer="4" from-port="0" to-layer="6" to-port="1"/>
		<edge from-layer="5" from-port="0" to-layer="6" to-port="2"/>
		<edge from-layer="6" from-port="3" to-layer="8" to-port="0"/>
		<edge from-layer="6" from-port="3" to-layer="119" to-port="0"/>
		<edge from-layer="7" from-port="0" to-layer="8" to-port="1"/>
		<edge from-layer="8" from-port="2" to-layer="11" to-port="1"/>
		<edge from-layer="9" from-port="0" to-layer="11" to-port="2"/>
		<edge from-layer="10" from-port="0" to-layer="11" to-port="3"/>
		<edge from-layer="11" from-port="4" to-layer="13" to-port="0"/>
		<edge from-layer="12" from-port="0" to-layer="13" to-port="1"/>
		<edge from-layer="13" from-port="2" to-layer="19" to-port="2"/>
		<edge from-layer="13" from-port="2" to-layer="15" to-port="0"/>
		<edge from-layer="13" from-port="2" to-layer="18" to-port="0"/>
		<edge from-layer="14" from-port="0" to-layer="16" to-port="0"/>
		<edge from-layer="15" from-port="1" to-layer="16" to-port="1"/>
		<edge from-layer="16" from-port="2" to-layer="19" to-port="1"/>
		<edge from-layer="16" from-port="2" to-layer="17" to-port="0"/>
		<edge from-layer="17" from-port="1" to-layer="18" to-port="1"/>
		<edge from-layer="18" from-port="2" to-layer="19" to-port="0"/>
		<edge from-layer="19" from-port="3" to-layer="20" to-port="1"/>
		<edge from-layer="20" from-port="2" to-layer="31" to-port="0"/>
		<edge from-layer="20" from-port="2" to-layer="82" to-port="0"/>
		<edge from-layer="20" from-port="2" to-layer="21" to-port="0"/>
		<edge from-layer="21" from-port="1" to-layer="24" to-port="0"/>
		<edge from-layer="22" from-port="0" to-layer="24" to-port="1"/>
		<edge from-layer="23" from-port="0" to-layer="24" to-port="2"/>
		<edge from-layer="24" from-port="3" to-layer="80" to-port="0"/>
		<edge from-layer="24" from-port="3" to-layer="26" to-port="0"/>
		<edge from-layer="25" from-port="0" to-layer="26" to-port="1"/>
		<edge from-layer="26" from-port="2" to-layer="30" to-port="0"/>
		<edge from-layer="26" from-port="2" to-layer="28" to-port="0"/>
		<edge from-layer="26" from-port="2" to-layer="47" to-port="0"/>
		<edge from-layer="26" from-port="2" to-layer="45" to-port="0"/>
		<edge from-layer="27" from-port="0" to-layer="28" to-port="1"/>
		<edge from-layer="28" from-port="2" to-layer="41" to-port="0"/>
		<edge from-layer="29" from-port="0" to-layer="30" to-port="1"/>
		<edge from-layer="30" from-port="2" to-layer="41" to-port="1"/>
		<edge from-layer="31" from-port="1" to-layer="34" to-port="0"/>
		<edge from-layer="32" from-port="0" to-layer="34" to-port="1"/>
		<edge from-layer="33" from-port="0" to-layer="34" to-port="2"/>
		<edge from-layer="34" from-port="3" to-layer="36" to-port="0"/>
		<edge from-layer="34" from-port="3" to-layer="78" to-port="0"/>
		<edge from-layer="35" from-port="0" to-layer="36" to-port="1"/>
		<edge from-layer="36" from-port="2" to-layer="49" to-port="0"/>
		<edge from-layer="36" from-port="2" to-layer="38" to-port="0"/>
		<edge from-layer="36" from-port="2" to-layer="51" to-port="0"/>
		<edge from-layer="36" from-port="2" to-layer="40" to-port="0"/>
		<edge from-layer="37" from-port="0" to-layer="38" to-port="1"/>
		<edge from-layer="38" from-port="2" to-layer="41" to-port="2"/>
		<edge from-layer="39" from-port="0" to-layer="40" to-port="1"/>
		<edge from-layer="40" from-port="2" to-layer="41" to-port="3"/>
		<edge from-layer="41" from-port="4" to-layer="59" to-port="0"/>
		<edge from-layer="42" from-port="0" to-layer="58" to-port="0"/>
		<edge from-layer="43" from-port="0" to-layer="57" to-port="0"/>
		<edge from-layer="44" from-port="0" to-layer="45" to-port="1"/>
		<edge from-layer="45" from-port="2" to-layer="52" to-port="0"/>
		<edge from-layer="46" from-port="0" to-layer="47" to-port="1"/>
		<edge from-layer="47" from-port="2" to-layer="52" to-port="1"/>
		<edge from-layer="48" from-port="0" to-layer="49" to-port="1"/>
		<edge from-layer="49" from-port="2" to-layer="52" to-port="2"/>
		<edge from-layer="50" from-port="0" to-layer="51" to-port="1"/>
		<edge from-layer="51" from-port="2" to-layer="52" to-port="3"/>
		<edge from-layer="52" from-port="4" to-layer="53" to-port="0"/>
		<edge from-layer="53" from-port="1" to-layer="56" to-port="0"/>
		<edge from-layer="54" from-port="0" to-layer="56" to-port="1"/>
		<edge from-layer="55" from-port="0" to-layer="56" to-port="2"/>
		<edge from-layer="56" from-port="3" to-layer="57" to-port="1"/>
		<edge from-layer="57" from-port="2" to-layer="58" to-port="1"/>
		<edge from-layer="58" from-port="2" to-layer="59" to-port="1"/>
		<edge from-layer="59" from-port="2" to-layer="61" to-port="0"/>
		<edge from-layer="60" from-port="0" to-layer="61" to-port="1"/>
		<edge from-layer="61" from-port="2" to-layer="65" to-port="0"/>
		<edge from-layer="62" from-port="0" to-layer="65" to-port="1"/>
		<edge from-layer="63" from-port="0" to-layer="65" to-port="2"/>
		<edge from-layer="64" from-port="0" to-layer="65" to-port="3"/>
		<edge from-layer="65" from-port="4" to-layer="67" to-port="0"/>
		<edge from-layer="66" from-port="0" to-layer="67" to-port="1"/>
		<edge from-layer="67" from-port="2" to-layer="69" to-port="0"/>
		<edge from-layer="68" from-port="0" to-layer="69" to-port="1"/>
		<edge from-layer="69" from-port="2" to-layer="71" to-port="0"/>
		<edge from-layer="70" from-port="0" to-layer="71" to-port="1"/>
		<edge from-layer="71" from-port="3" to-layer="73" to-port="2"/>
		<edge from-layer="71" from-port="2" to-layer="73" to-port="1"/>
		<edge from-layer="72" from-port="0" to-layer="73" to-port="3"/>
		<edge from-layer="73" from-port="4" to-layer="108" to-port="0"/>
		<edge from-layer="73" from-port="4" to-layer="98" to-port="0"/>
		<edge from-layer="73" from-port="4" to-layer="89" to-port="0"/>
		<edge from-layer="74" from-port="0" to-layer="107" to-port="0"/>
		<edge from-layer="75" from-port="0" to-layer="81" to-port="0"/>
		<edge from-layer="76" from-port="0" to-layer="81" to-port="1"/>
		<edge from-layer="77" from-port="0" to-layer="78" to-port="1"/>
		<edge from-layer="78" from-port="2" to-layer="81" to-port="2"/>
		<edge from-layer="79" from-port="0" to-layer="80" to-port="1"/>
		<edge from-layer="80" from-port="2" to-layer="81" to-port="3"/>
		<edge from-layer="81" from-port="4" to-layer="82" to-port="1"/>
		<edge from-layer="82" from-port="2" to-layer="110" to-port="0"/>
		<edge from-layer="82" from-port="2" to-layer="83" to-port="0"/>
		<edge from-layer="83" from-port="1" to-layer="86" to-port="0"/>
		<edge from-layer="84" from-port="0" to-layer="86" to-port="1"/>
		<edge from-layer="85" from-port="0" to-layer="86" to-port="2"/>
		<edge from-layer="86" from-port="3" to-layer="88" to-port="0"/>
		<edge from-layer="87" from-port="0" to-layer="88" to-port="1"/>
		<edge from-layer="88" from-port="2" to-layer="107" to-port="1"/>
		<edge from-layer="89" from-port="1" to-layer="93" to-port="0"/>
		<edge from-layer="90" from-port="0" to-layer="93" to-port="1"/>
		<edge from-layer="91" from-port="0" to-layer="93" to-port="2"/>
		<edge from-layer="92" from-port="0" to-layer="93" to-port="3"/>
		<edge from-layer="93" from-port="4" to-layer="95" to-port="0"/>
		<edge from-layer="94" from-port="0" to-layer="95" to-port="1"/>
		<edge from-layer="95" from-port="2" to-layer="97" to-port="0"/>
		<edge from-layer="96" from-port="0" to-layer="97" to-port="1"/>
		<edge from-layer="97" from-port="2" to-layer="107" to-port="2"/>
		<edge from-layer="98" from-port="1" to-layer="102" to-port="0"/>
		<edge from-layer="99" from-port="0" to-layer="102" to-port="1"/>
		<edge from-layer="100" from-port="0" to-layer="102" to-port="2"/>
		<edge from-layer="101" from-port="0" to-layer="102" to-port="3"/>
		<edge from-layer="102" from-port="4" to-layer="104" to-port="0"/>
		<edge from-layer="103" from-port="0" to-layer="104" to-port="1"/>
		<edge from-layer="104" from-port="2" to-layer="106" to-port="0"/>
		<edge from-layer="105" from-port="0" to-layer="106" to-port="1"/>
		<edge from-layer="106" from-port="2" to-layer="107" to-port="3"/>
		<edge from-layer="107" from-port="4" to-layer="108" to-port="1"/>
		<edge from-layer="108" from-port="2" to-layer="111" to-port="0"/>
		<edge from-layer="109" from-port="0" to-layer="110" to-port="1"/>
		<edge from-layer="110" from-port="2" to-layer="111" to-port="1"/>
		<edge from-layer="111" from-port="2" to-layer="133" to-port="0"/>
		<edge from-layer="112" from-port="1" to-layer="115" to-port="0"/>
		<edge from-layer="113" from-port="0" to-layer="115" to-port="1"/>
		<edge from-layer="114" from-port="0" to-layer="115" to-port="2"/>
		<edge from-layer="115" from-port="3" to-layer="117" to-port="0"/>
		<edge from-layer="116" from-port="0" to-layer="117" to-port="1"/>
		<edge from-layer="117" from-port="2" to-layer="132" to-port="0"/>
		<edge from-layer="118" from-port="0" to-layer="119" to-port="1"/>
		<edge from-layer="119" from-port="2" to-layer="132" to-port="1"/>
		<edge from-layer="120" from-port="1" to-layer="123" to-port="0"/>
		<edge from-layer="121" from-port="0" to-layer="123" to-port="1"/>
		<edge from-layer="122" from-port="0" to-layer="123" to-port="2"/>
		<edge from-layer="123" from-port="3" to-layer="125" to-port="0"/>
		<edge from-layer="124" from-port="0" to-layer="125" to-port="1"/>
		<edge from-layer="125" from-port="2" to-layer="132" to-port="2"/>
		<edge from-layer="126" from-port="1" to-layer="129" to-port="0"/>
		<edge from-layer="127" from-port="0" to-layer="129" to-port="1"/>
		<edge from-layer="128" from-port="0" to-layer="129" to-port="2"/>
		<edge from-layer="129" from-port="3" to-layer="131" to-port="0"/>
		<edge from-layer="130" from-port="0" to-layer="131" to-port="1"/>
		<edge from-layer="131" from-port="2" to-layer="132" to-port="3"/>
		<edge from-layer="132" from-port="4" to-layer="133" to-port="1"/>
		<edge from-layer="133" from-port="2" to-layer="134" to-port="0"/>
	</edges>
	<meta_data>
		<MO_version value="2021.4.1-3926-14e67d86634-releases/2021/4"/>
		<cli_parameters>
			<caffe_parser_path value="DIR"/>
			<data_type value="float"/>
			<disable_nhwc_to_nchw value="False"/>
			<disable_omitting_optional value="False"/>
			<disable_resnet_optimization value="False"/>
			<disable_weights_compression value="False"/>
			<enable_concat_optimization value="False"/>
			<enable_flattening_nested_params value="False"/>
			<enable_ssd_gluoncv value="False"/>
			<extensions value="DIR"/>
			<framework value="onnx"/>
			<freeze_placeholder_with_value value="{}"/>
			<generate_deprecated_IR_V7 value="False"/>
			<input_model value="DIR/model.onnx"/>
			<input_model_is_text value="False"/>
			<k value="DIR/CustomLayersMapping.xml"/>
			<keep_shape_ops value="True"/>
			<legacy_ir_generation value="False"/>
			<legacy_mxnet_model value="False"/>
			<log_level value="ERROR"/>
			<mean_scale_values value="{}"/>
			<mean_values value="()"/>
			<model_name value="model"/>
			<output_dir value="DIR"/>
			<placeholder_data_types value="{}"/>
			<progress value="False"/>
			<remove_memory value="False"/>
			<remove_output_softmax value="False"/>
			<reverse_input_channels value="False"/>
			<save_params_from_nd value="False"/>
			<scale_values value="()"/>
			<silent value="False"/>
			<static_shape value="False"/>
			<stream_output value="False"/>
			<transform value=""/>
			<unset unset_cli_parameters="batch, counts, disable_fusing, disable_gfusing, finegrain_fusing, input, input_checkpoint, input_meta_graph, input_proto, input_shape, input_symbol, mean_file, mean_file_offsets, move_to_preprocess, nd_prefix_name, output, placeholder_shapes, pretrained_model_name, saved_model_dir, saved_model_tags, scale, tensorboard_logdir, tensorflow_custom_layer_libraries, tensorflow_custom_operations_config_update, tensorflow_object_detection_api_pipeline_config, tensorflow_use_custom_operations_config, transformations_config"/>
		</cli_parameters>
	</meta_data>
</net>
